tic tac toe/non-symmetric/3l-1p/opt_params.npy (npy, 536 bytes, 1 tensors)

array f4 [102]
0.1686622 2.1559606 -0.14440559 2.223178 -0.9003314 -0.29134485 0.39948535 0.12513204
-0.075207695 0.24283156 -0.026045868 0.37589207 3.1464665 -1.351097 -0.06295129 0.82792443
0.035252783 0.40598634 -0.007745508 0.0014344439 0.0057293386 -0.002485097 0.0028801505 0.008041318
-0.01553407 -0.0052780467 -0.0044284468 0.007903463 0.017617721 0.02352718 -0.6671017 -0.72070915
-0.054891102 -0.5602806 0.5964001 -0.06981457 2.7381601 -1.2101367 2.2650576 -0.9172492
-0.30309042 0.44528097 -0.78335357 -0.059404325 -0.0887249 -0.33932 -0.028020885 -0.03746948
1.5677108 1.150059 0.08479485 -0.44317386 -0.0301508 -0.05785943 -0.0073408983 -0.0019627137
0.0005629302 -0.006678475 0.0016376888 -0.00013577924 -0.015194696 -0.0039874143 0.021186884 -0.009099709
0.0033287003 0.017601244 0.042997587 -1.0909935 0.83160704 -0.022165325 -1.0386373 0.52652293
0.2266574 2.1960568 1.0054201 -1.0059521 -0.16709764 -0.15787995 0.36000854 -0.068716615
0.14513704 -0.042075228 3.1414604 0.042479225 -1.5738616 0.03277627 -0.0060344017 -0.021705454
-0.004062323 -0.037988078 0.0019245662 -0.0043385318 0.0011932948 -0.0032716047 -0.002348136 -0.002077944
-0.0023855197 -0.0009796933 0.061757658 -0.4695058 0.63242257 1.510613
00000000: c9b5 2c3e 42fb 0940 0fdf 13be 8c48 0e40
00000010: 1e7c 66bf 272b 95be 5889 cc3e 9d22 003e
00000020: 7e06 9abd d6a8 783e 255e d5bc ed74 c03e
00000030: b55f 4940 bff0 acbf 9bec 80bd dbf2 533f
00000040: 3965 103d 71dd cf3e 08ce fdbb f303 bc3a
00000050: 2dbd bb3b 02dd 22bb e8c0 3c3b bbbf 033c
00000060: 9d82 7ebc 77f3 acbb 811c 91bb 877d 013c
00000070: 0a53 903c 13bc c03c 2dc7 2abf 6580 38bf
00000080: 7ed5 60bd 8d6e 0fbf adad 183f f1fa 8ebd
00000090: 043e 2f40 c2e5 9abf b4f6 1040 d8d0 6abf
000000a0: ab2e 9bbe defb e33e dc89 48bf f351 73bd
000000b0: 66b5 b5bd 5abb adbe 0e8c e5bc 9979 19bd
000000c0: bfaa c83f 2235 933f eca8 ad3d afe7 e2be
000000d0: cffe f6bc 02fe 6cbd eb8b f0bb dfa0 00bb
000000e0: 9b91 133a 1cd7 dabb b8a7 d63a f65f 0eb9
000000f0: 2df3 78bc dba8 82bb 1e90 ad3c f216 15bc
00000100: 5326 5a3b 7c30 903c 3d1e 303d ada5 8bbf
00000110: 33e4 543f 0e94 b5bc 11f2 84bf 35ca 063f
00000120: e118 683e 328c 0c40 9bb1 803f 0ac3 80bf
00000130: a51b 2bbe 48ab 21be 0a53 b83e 4cbb 8cbd
00000140: ce9e 143e 1357 2cbd b00d 4940 b2fe 2d3d
00000150: 4c74 c9bf 6940 063d 3bbc c5bb a3cf b1bc
00000160: 3c1d 85bb 6399 1bbd ba41 fc3a 3e2a 8ebb
00000170: 5468 9c3a 6b68 56bb 2fe3 19bb 1e2e 08bb
00000180: 6156 1cbb 0d69 80ba 99f5 7c3d 1063 f0be
00000190: 72e6 213f c45b c13f
