tic tac toe/non-symmetric/4l-4p/opt_params.npy (npy, 2304 bytes, 1 tensors)

array f4 [544]
2.5352774 -0.6625902 -0.75663567 -0.00648603 -2.0110278 -0.68116325 -0.47515363 -0.29013488
-1.4954683 0.19108848 0.95604455 0.3163807 -0.26617804 0.19842254 1.4002469 -0.038660895
-1.1216773 -1.1998304 -0.96809536 0.9865952 0.39001378 0.053264122 -1.3466816 -1.0309035
-0.5439253 0.38511306 0.13181047 0.014339492 0.7586368 0.7080234 -0.53838915 -0.44976687
-0.2569629 -0.548114 -0.84215724 1.1507415 2.4526572 -1.4799198 0.34550685 0.0052548354
1.2281669 -0.875504 1.8714657 0.7265691 -1.2132462 0.44192863 -0.14832234 0.34642777
0.66074395 1.0722307 -0.2991253 -1.4112711 -0.6820512 1.0756607 0.6889525 -1.0862244
-1.8153715 -2.1512103 -1.5150329 -0.8188367 -1.8804086 0.3815919 -0.40442646 0.01760412
2.6722167 -1.4798888 -1.3096689 -0.5096962 1.1564661 -1.1841981 0.7645215 1.1134276
-0.04335683 0.110275805 0.4160202 1.7361898 1.6871536 -0.024900055 1.2885427 -0.35423338
-0.97171 -0.2996824 -0.71960217 1.4674181 -1.6784617 -0.93301636 -0.047144327 -0.6020995
-0.24136947 -0.24134764 -0.62334895 -1.4525651 -1.5419511 -0.6792352 0.21205102 -1.0778625
0.6157534 -0.85732645 -1.0045921 -0.8269289 -0.9256779 -0.35700196 -1.6714573 0.9026387
1.1549082 -1.0991246 -0.41203138 0.3102445 0.3794968 -0.8270279 -0.8168273 -0.044819426
0.07220885 -0.2190432 -2.4518633 0.20578913 0.27542782 0.4842631 -0.7197769 -0.13539189
-0.49028856 -0.6230671 0.33985704 0.26148093 0.06976725 1.9021345 0.37938327 0.34659195
2.563609 -1.586912 0.5750418 -0.4321492 1.2824652 -2.4368894 1.3395846 0.21358241
0.66267574 -0.19958647 1.887395 1.0799361 -1.4645622 -0.43931296 0.15719666 0.2535802
1.1663939 0.49112198 0.3457163 0.16344903 0.19811566 -0.95658857 -1.2616371 0.64716464
-0.78736407 -1.5027266 0.46202612 0.3817081 1.1915089 1.2295605 -0.5989375 0.9181343
0.5970673 -0.5763174 -0.55193317 -0.48835516 0.15906546 0.13082151 1.686398 -1.0225618
-2.0100174 1.073988 -1.0387511 -1.0768329 0.0150928395 -0.4507023 -0.59656924 0.66140217
0.5617208 0.15229748 0.30324927 -0.98281837 -1.6193254 0.2905706 0.16299538 -0.8779786
0.20388009 0.6350103 0.9587858 0.20312259 1.3762279 -1.8415517 -0.75285006 0.62069917
-1.7911192 -1.3834349 0.4076583 0.4244925 0.10669677 -0.54524946 -0.59151727 -1.6316415
-0.79292154 -1.0016006 -0.38587427 1.9422562 0.9900041 0.81919426 0.59927297 -0.38385713
0.13202381 -0.5459935 0.8061835 -0.21340565 -1.2212203 0.53791064 -0.4895127 0.90551585
-0.966009 0.5607728 -0.22422773 -1.4990575 1.287846 1.2865028 0.15300769 0.15879488
-0.36777806 -0.6376202 -0.79045254 1.6732574 -0.29970506 0.052444324 1.0107992 -0.63384175
-0.06469435 -0.5532745 0.1169212 0.08539194 0.28970867 0.4048357 -0.74538 -1.0390906
1.4743028 0.20984863 0.1955915 0.77589613 0.15698749 0.05467894 1.8826655 -0.38700512
0.6919503 0.6098782 -0.2746231 1.6084998 0.1978252 -0.04185529 1.5796858 -0.1981358
00000000: fc41 2240 839f 29bf e0b2 41bf c388 d4bb
00000010: aeb4 00c0 b760 2ebf 5647 f3be 8f8c 94be
00000020: 816b bfbf b3ac 433e 56bf 743f a7fc a13e
00000030: 7d48 88be 472f 4b3e 4a3b b33f e35a 1ebd
00000040: 1f93 8fbf 0b94 99bf 19d5 77bf 8191 7c3f
00000050: e3af c73e 7b2b 5a3d 1060 acbf a5f4 83bf
00000060: b03e 0bbf 8a2d c53e 53f9 063e 30f0 6a3c
00000070: 0536 423f 0641 353f dfd3 09bf d847 e6be
00000080: a490 83be 3351 0cbf 9e97 57bf 7f4b 933f
00000090: 56f8 1c40 036e bdbf 46e6 b03e c130 ac3b
000000a0: 9334 9d3f 0821 60bf 308c ef3f 6f00 3a3f
000000b0: a74b 9bbf 7844 e23e d0e1 17be fb5e b13e
000000c0: 8426 293f db3e 893f f426 99be 88a4 b4bf
000000d0: e89a 2ebf 40af 893f 315f 303f 6709 8bbf
000000e0: 185e e8bf 6ead 09c0 99ec c1bf 489f 51bf
000000f0: 3bb1 f0bf 0360 c33e fc10 cfbe 8436 903c
00000100: 9905 2b40 ff6c bdbf 3ba3 a7bf 737b 02bf
00000110: 1507 943f ce93 97bf aeb7 433f cc84 8e3f
00000120: ee96 31bd 48d8 e13d 9a00 d53e 783b de3f
00000130: a6f4 d73f 33fb cbbc f8ee a43f 145e b5be
00000140: fdc1 78bf f96f 99be d937 38bf 5bd4 bb3f
00000150: d5d7 d6bf 29da 6ebf 691a 41bd 3123 1abf
00000160: 8f29 77be d623 77be cc93 1fbf a7ed b9bf
00000170: a75e c5bf 5ce2 2dbf e723 593e 66f7 89bf
00000180: 04a2 1d3f bf79 5bbf 7996 80bf 9db1 53bf
00000190: 3af9 6cbf f6c8 b6be 50f2 d5bf 5413 673f
000001a0: 08d4 933f 1db0 8cbf c7f5 d2be 5ed8 9e3e
000001b0: 684d c23e 1ab8 53bf 981b 51bf 9394 37bd
000001c0: 3ce2 933d dc4c 60be 54eb 1cc0 63ba 523e
000001d0: e004 8d3e 55f1 f73e 4d43 38bf 2ca4 0abe
000001e0: 1a07 fbbe 5381 1fbf be01 ae3e d4e0 853e
000001f0: 22e2 8e3d 2579 f33f 863e c23e 8074 b13e
00000200: 2b12 2440 ef1f cbbf f035 133f a942 ddbe
00000210: d227 a43f fff5 1bc0 8277 ab3f 59b5 5a3e
00000220: 1ea5 293f 6560 4cbe 2996 f13f 593b 8a3f
00000230: c676 bbbf a1ed e0be 29f8 203e 44d5 813e
00000240: 654c 953f 5774 fb3e ba01 b13e 2f5f 273e
00000250: d5de 4a3e fde2 74bf 537d a1bf 95ac 253f
00000260: b190 49bf 5859 c0bf b08e ec3e 3e6f c33e
00000270: 5d83 983f 3d62 9d3f f853 19bf d90a 6b3f
00000280: 67d9 183f 8a89 13bf 7e4b 0dbf b009 fabe
00000290: 0ee2 223e 13f6 053e e4db d73f 4ee3 82bf
000002a0: 20a4 00c0 7078 893f ccf5 84bf a9d5 89bf
000002b0: f547 773c 74c2 e6be c3b8 18bf a751 293f
000002c0: efcc 0f3f dff3 1b3e 7d43 9b3e fc99 7bbf
000002d0: 0e46 cfbf abc5 943e 43e8 263e 35c3 60bf
000002e0: f1c5 503e 0990 223f fc72 753f 5eff 4f3e
000002f0: 3c28 b03f f7b7 ebbf c8ba 40bf 24e6 1e3f
00000300: 6543 e5bf 6514 b1bf 97b8 d03e 1557 d93e
00000310: d683 da3d 7895 0bbf ad6d 17bf a1d9 d0bf
00000320: e8fc 4abf 7334 80bf 5091 c5be da9b f83f
00000330: e970 7d3f b7b6 513f f469 193f ec88 c4be
00000340: 4031 073e 3bc6 0bbf 0b62 4e3f 0387 5abe
00000350: f250 9cbf 83b4 093f 69a1 fabe e3cf 673f
00000360: 5e4c 77bf ce8e 0f3f f49b 65be 1ee1 bfbf
00000370: 23d8 a43f 20ac a43f 0cae 1c3e 209b 223e
00000380: 684d bcbe 143b 23bf 195b 4abf 4c2d d63f
00000390: f172 99be dccf 563d de61 813f 7443 22bf
000003a0: 797e 84bd 66a3 0dbf 6274 ef3d f8e1 ae3d
000003b0: b254 943e a046 cf3e 39d1 3ebf ec00 85bf
000003c0: f4b5 bc3f 8fe2 563e 2349 483e 21a1 463f
000003d0: 54c1 203e 06f7 5f3d 2ffb f03f 8925 c6be
000003e0: a823 313f fa20 1c3f 669b 8cbe 52e3 cd3f
000003f0: b092 4a3e 7470 2bbd 2533 ca3f 1ce4 4abe
