tic tac toe/symmetric/4l-4p/opt_params.npy (npy, 704 bytes, 1 tensors)

array f4 [144]
0	0xbe97695b	-0.29572567
1	0x3f458651	0.77158076
2	0x3fd12c09	1.6341563
3	0x3dd7d475	0.1053857
4	0xbe141309	-0.14460386
5	0xc0260a07	-2.594362
6	0xbbd61f34	-0.0065344814
7	0x3f45e9fe	0.7731017
8	0x3d90b2dc	0.07065365
9	0x3feafbb1	1.835806
10	0x3f7c8d60	0.9865322
11	0x3f84fbfa	1.0389397
12	0xbeff5419	-0.4986885
13	0xbfc9b5cb	-1.5758604
14	0xbd24028c	-0.04004149
15	0xbc2b445f	-0.010453313
16	0xbb81302b	-0.0039425096
17	0xbffff133	-1.9995483
18	0x3f839d19	1.0282317
19	0x3dc3465b	0.095349036
20	0xbfcd347d	-1.6031643
21	0xbefeb27f	-0.49745557
22	0x3fdb810a	1.7148755
23	0xbe901196	-0.28138417
24	0x3c234fac	0.009967726
25	0x3f8baf3f	1.0912856
26	0xbcec5728	-0.028850153
27	0xbfb6f87a	-1.4294579
28	0x3f41a328	0.7563958
29	0x3e899892	0.26874214
30	0x3ea383e9	0.31936577
31	0x3c1738cd	0.009229851
32	0xbf81ecca	-1.0150387
33	0x3ac148c7	0.0014746421
34	0xbfd399c7	-1.6531304
35	0x4012363a	2.2845597
36	0xbf8e83d6	-1.1133983
37	0xbf17102b	-0.59009045
38	0x3fd5c8ac	1.6701865
39	0xbfbf9caf	-1.4969691
40	0x3f81540c	1.0103774
41	0x40323ad9	2.7848418
42	0x3cab18cf	0.020885853
43	0x3f8e18b6	1.1101291
44	0x3f8fb2f6	1.122649
45	0xbc8932f4	-0.01674793
46	0x3f8cbf8d	1.0995957
47	0x3fd1a993	1.6379875
48	0x3f2fbf04	0.6865084
49	0xbc45ce55	-0.012073119
50	0xc0469e4d	-3.103412
51	0x3bd596e6	0.0065182326
52	0x3c6e30c7	0.014537997
53	0x3f8a2222	1.0791667
54	0x3f01cc2e	0.5070218
55	0x3ebfb0ad	0.3743948
56	0x3fc1c86d	1.513929
57	0xbd30ebea	-0.043193735
58	0x3baa4b8a	0.0051969932
59	0x3fb78bbe	1.4339521
60	0xbc07f247	-0.0082975095
61	0x3f8ecff0	1.1157207
62	0xc031bcad	-2.7771409
63	0x3fb9dba5	1.4520155
64	0xbe380e6d	-0.17974253
65	0xc01d07aa	-2.4535928
66	0xbfe7272e	-1.8058832
67	0x3d5548f8	0.05207154
68	0x3f28082b	0.65637463
69	0xbbb35bde	-0.005473598
70	0x3c2c89d6	0.0105309095
71	0x3f0937a7	0.53600544
72	0x3ed8f702	0.42375952
73	0x3f238355	0.6387227
74	0x3fce52a6	1.6118972
75	0xbf9d4806	-1.2287605
76	0xc00c5ca1	-2.1931536
77	0x3efd671c	0.4949273
78	0xbbdac551	-0.006676354
79	0x3bf0d9d7	0.0073501873
80	0x3e87f8fc	0.26557148
81	0xbcebe95f	-0.028797803
82	0x3f71281f	0.94201845
83	0xbebf1a46	-0.37324733
84	0xc035ddbd	-2.8416588
85	0x40026800	2.0375977
86	0xbf0af87b	-0.542854
87	0x3b93b14a	0.0045072185
88	0xb914f49e	-0.00014205507
89	0x3f7e7fd5	0.99413806
90	0x3f9df0b5	1.2339083
91	0x3f9164d2	1.1358893
92	0xbded587b	-0.11589142
93	0xbf859e65	-1.0438963
94	0xbff89596	-1.942065
95	0xbf5851db	-0.844999
96	0x3bc60666	0.006043243
97	0xb97acb3a	-0.00023917566
98	0x3ed03da9	0.40672043
99	0xc00fae00	-2.244995
100	0x3f9a93e1	1.2076379
101	0xbf298477	-0.6621775
102	0xbf9f39e9	-1.2439548
103	0x3fa743f7	1.3067616
104	0xbf970a90	-1.1800098
105	0xbc83b015	-0.016075173
106	0xbc7f374a	-0.015577147
107	0x3fa4f12b	1.2886099
108	0x3effdce8	0.49973226
109	0xbfb25ff0	-1.3935528
110	0x3f79326d	0.9734257
111	0x3d26a7b3	0.040687274
112	0x3feb1494	1.8365655
113	0x3dc84312	0.09778418
114	0x3ba908bf	0.0051585133
115	0x3f317d59	0.6933189
116	0x3fd7261b	1.6808504
117	0x3fb287d8	1.3947706
118	0x3d054692	0.032538004
119	0x3f21fb1b	0.6327378
120	0xc008cf28	-2.1376438
121	0xbe932313	-0.28737697
122	0x403e2bba	2.9714189
123	0x3bb5ef98	0.0055522434
124	0xbb03f8e1	-0.0020137357
125	0x3f84551f	1.0338477
126	0xbd1979c3	-0.037469637
127	0xbe0317b5	-0.12802012
128	0x3f732596	0.94979227
129	0xbf59c9f8	-0.85073805
130	0xbf2e2234	-0.6802094
131	0x4012c830	2.2934685
132	0xbfc13287	-1.5093545
133	0xbd2a74ee	-0.04161542
134	0x3b0f30ed	0.002184923
135	0x3b41c50b	0.002956691
136	0x4049725b	3.1476047
137	0xbb22dcba	-0.0024850802
138	0xbce466cc	-0.027881049
139	0xbe4fce4b	-0.20293538
140	0xc00b36ae	-2.1752124
141	0x3fcfd19c	1.6235843
142	0xbe300d99	-0.17192687
143	0xbbc2fd92	-0.005950638
